data.pth (torch_old, 6950 bytes, 6 tensors)

l1.weight f4 [8, 108]
000000 b0 4d e6 bd 79 4d a2 3d 53 2e d0 bd 6e 81 a2 3e
       -0.112452865 0.07924933 -0.10165086 0.31739372
000010 52 a8 18 3e aa 8b 85 3f b3 03 42 bf c7 a8 97 be
       0.14907959 1.0433247 -0.75786895 -0.29620954
000020 5f df 6e 3f dd 53 3d 3e 90 8d 1c 3f 33 8b 3d bf
       0.9330959 0.18489023 0.6115351 -0.74040526
000030 f7 62 c2 3e 1d df 23 3f e7 46 6b 3d 9f 3a 15 be
       0.3796613 0.6401232 0.057440665 -0.14573143
000040 5f 49 a0 3e 54 f0 55 3e 1b 00 c0 be 25 85 1e 3f
       0.31305978 0.20892459 -0.3750008 0.6192191
000050 6c ae 64 bd 25 a4 f4 3d 76 3e 27 bc 73 cd 1c 3e
       -0.055830404 0.119453706 -0.010207763 0.15312748
000060 5f c0 52 be 0f 8b 47 3f f7 da 85 bd d2 c7 63 bc
       -0.20581196 0.7794656 -0.06535905 -0.013902621
000070 c8 f5 3c bf c9 17 6b bc 08 0e 0d 3f b5 79 bb be
       -0.7381253 -0.014348933 0.55099535 -0.36616293
000080 dc b3 3d bf 8c 9e 3c bf bd 0a 69 bf 3b 49 ca bd
       -0.7410257 -0.73679423 -0.9103201 -0.09877249
000090 bb c1 9f 3e 8d 93 3d bf c9 41 71 bf 7b a0 3d bf
       0.31202492 -0.7405327 -0.94241005 -0.74073
0000a0 ff 9c 3d bf 7a a9 e8 3f 4b 97 00 bc 29 7e d0 3e
       -0.7406768 1.817672 -0.007848571 0.40721253
0000b0 f6 8e 8b 3e 8c c0 88 3e f1 5d 7e be 92 f9 6c 3f
       0.27257508 0.26709402 -0.24840523 0.92568314
0000c0 be f3 21 3d f2 2d 5e 3e f5 4a 72 be ae a0 d1 be
       0.03953909 0.21697214 -0.23661406 -0.409429
0000d0 1a 87 06 3f db 7e 82 bb c0 3e 2b bc f5 63 41 bf
       0.525499 -0.0039824075 -0.0104519725 -0.7554315
0000e0 29 86 2b bf ac 7a e3 3e f7 fc a6 3d e0 cd 85 3e
       -0.6700159 0.4442953 0.08153718 0.26133633
0000f0 14 6f 42 3e e6 09 61 3d 41 65 12 3f e5 e0 49 3e
       0.18987685 0.05494108 0.5718575 0.19714697
000100 36 7d be 3e 21 89 a2 3f ec 13 fe 3f 51 7d b1 3d
       0.37204903 1.2698098 1.984983 0.0866648
000110 0b e0 34 bf a7 53 b1 3f bb a0 81 3f 9a e2 27 bd
       -0.7065436 1.3853654 1.0127176 -0.04098759
000120 ac b7 27 be b0 77 ba 3e b8 62 09 be 46 10 43 bd
       -0.16378659 0.3641944 -0.13416564 -0.04762294
000130 bb 2d 3e bf 17 9d 2f bf 90 4b 03 be a7 e1 24 3f
       -0.7428853 -0.68599075 -0.12821794 0.6440682
000140 3b 8b 9b be ea 86 13 3f 4c bf b0 3e bd 4f 50 3e
       -0.30379662 0.5762774 0.34520948 0.20342918
000150 03 b4 2b be e5 c1 2f bf ef 1f d3 3e b7 17 8a 3e
       -0.16767888 -0.68655235 0.412353 0.26971218
000160 33 bf 4e 3e c0 95 1a 3f 0f 2c 3d bf 32 2f 36 3f
       0.20190124 0.6038475 -0.73895353 0.71165764
000170 b2 12 aa 3e 93 a8 47 be d1 18 4a 3f 92 9e a5 3e
       0.33217388 -0.194979 0.78944117 0.32347542
000180 8c fd d5 3e 34 92 3a 3e c9 04 e9 3e df b2 e6 bc
       0.41795003 0.18219835 0.45511463 -0.028161464
000190 bb 68 08 3e 3e 77 6c bd 69 34 1b 3e a9 de 07 be
       0.13321202 -0.057730906 0.15156712 -0.13268532
0001a0 a6 6d ee bd 7b 22 be bd 0f ad 83 bd e2 b1 9f 3e
       -0.116420075 -0.092839204 -0.06429493 0.311904
0001b0 62 96 85 3f 95 99 b8 bc d9 65 37 3f 41 d9 66 3f
       1.0436518 -0.022534171 0.7163978 0.90175253
0001c0 43 6e 44 3f dc 9b 4c bf a6 f7 b0 be 93 f9 1b 3f
       0.76730746 -0.7992532 -0.3456394 0.60927695
0001d0 a2 c2 05 bf c7 a9 68 3f ac 37 a2 ba 1a 01 5c 3f
       -0.5225011 0.9088406 -0.0012376211 0.8593918
0001e0 45 39 b7 bd b3 46 14 be 5a b5 75 3e a1 36 8e 3e
       -0.0894647 -0.14480095 0.23994961 0.27776054
0001f0 ec 1d 73 be b1 4e bc be 4c 44 36 3f ba de 25 3f
       -0.23741883 -0.36778787 0.7119796 0.6479298
000200 2a 16 6a 3e 6f bb 5d 3e 0d a5 20 3f 8f b7 5d 3f
       0.22860017 0.21653531 0.6275185 0.86608213
000210 4c 03 57 3e d2 e7 c5 be e5 9d bc 3d f0 5a 1f 3f
       0.20997351 -0.38653427 0.092098035 0.62248135
000220 31 eb ad 3e 18 5d 80 3f 38 eb 86 bd 73 07 3f 3f
       0.339685 1.002841 -0.06587833 0.7462074
000230 81 7d 5d 3f d3 af e2 be ec 37 63 be c4 6c 55 3e
       0.8651963 -0.44274768 -0.22189301 0.20842272
000240 9e d8 2a bf b2 ae 90 3f fc cf 41 3f 28 b0 87 3f
       -0.6673678 1.1303313 0.75707984 1.0600634
000250 69 75 87 3f aa 53 d7 3f ef d2 13 3e 87 4e 8f 3f
       1.0582706 1.6822407 0.14435934 1.119584
000260 a0 46 ba 3d 20 49 8e 3c 66 37 f0 3e 82 e2 1f bf
       0.09095502 0.017368853 0.46917266 -0.62455
000270 d8 63 16 3f 6a 61 56 be 51 5d 08 3f c5 fd bd 3e
       0.587461 -0.20935598 0.5326739 0.37107673
000280 e7 5a 9e bd 1e 95 18 3f ed 8d dc 3e c5 c9 92 3e
       -0.07732182 0.59602535 0.4307703 0.28669563
000290 9f cc fc 3e 03 92 6f be 4f 27 13 3f 36 01 bd bd
       0.49374864 -0.23395543 0.57481855 -0.092287466
0002a0 a6 30 4a 3f ce 2a 1f 3d ce f3 58 3f ae 2c a2 3f
       0.7898048 0.03885918 0.84747016 1.2669885
0002b0 41 76 63 bb 3b a1 68 bf c2 21 df 3f ce 4a 88 3e
       -0.0034707936 -0.9087102 1.7432177 0.2661957
0002c0 ce 8e 2c bf c3 eb 37 bf 6f 65 02 bf 85 47 f6 3d
       -0.674054 -0.7184412 -0.50936025 0.1202536
0002d0 2e 4a 66 3e 10 52 68 bf 2e ab 42 3f 67 29 e5 3e
       0.22489235 -0.9075022 0.7604245 0.4475815
0002e0 25 0c 71 be bf fc a1 3e 69 c2 30 3e df 62 5b bf
       -0.23539789 0.31638142 0.17261662 -0.8569774
0002f0 2a 45 bc 3e 58 03 3f bf 6e 76 a5 3e 79 1a 88 3b
       0.36771518 -0.7461448 0.32316917 0.0041535464
000300 ec b7 e1 3e b0 c3 dd 3e 96 cd 97 3f 8a d9 08 3f
       0.44085634 0.4331336 1.1859615 0.5345694
000310 e3 d9 15 3f 26 45 f2 be 30 bf b3 3f bb 40 47 3e
       0.58535594 -0.4731838 1.4042721 0.19458286
000320 c0 d2 ff bb 65 bd a7 3e 84 65 d0 be d8 65 14 3f
       -0.007807106 0.32761684 -0.4070245 0.579679
000330 e4 88 cc bd a2 7d 96 bd f4 7b 84 3d 56 d9 01 3e
       -0.09987047 -0.07348181 0.06468955 0.12680563
000340 84 ed 0c be c2 a2 6a 3e b5 c3 4e 3e d2 28 62 3f
       -0.1376248 0.2291365 0.20191844 0.88343537
000350 c1 99 8a 3b b0 3e 04 3f bd 62 e0 3e f7 7e 58 bd
       0.0042297547 0.51658154 0.4382533 -0.052855458
000360 e3 f2 fc 3e 70 5f c6 3e 9a cc dc be 5a 69 af 3e
       0.49404058 0.38744688 -0.4312485 0.34260064
000370 da c9 7e 3f 03 e7 25 bf f5 9c 94 3f 52 ee 49 3e
       0.9952675 -0.6480562 1.16104 0.19719818
000380 5d 32 c5 be 1f 65 0a 3e cb be 39 be d3 56 6e 3f
       -0.38514987 0.13515137 -0.18139188 0.93101233
000390 e2 87 89 bd 33 de d5 3f b5 f6 2b bf 06 11 e3 3e
       -0.06715371 1.6708435 -0.6717332 0.44348925
0003a0 b3 ed ba 3e 3a 8a ae 3f 71 a4 6e 3e c1 05 99 3f
       0.36509475 1.3635933 0.23304917 1.1954881
0003b0 35 44 a3 3e c0 59 1c 3f 3b 49 7e 3f 7c b3 8a be
       0.31887975 0.6107445 0.9933049 -0.2709006
0003c0 06 73 00 3f 67 28 d4 be 10 a6 30 3e fa 4e 5d be
       0.5017551 -0.41437075 0.17250848 -0.21612158
0003d0 76 bb 00 3f ed 7d 41 3f e0 f0 f0 3e 05 4a c5 3e
       0.5028604 0.7558277 0.47058773 0.38533035
0003e0 72 cc 6e 3f 36 70 8f 3f 0e 97 c7 3f 56 1c a3 3e
       0.9328071 1.1206119 1.5592973 0.31857556
0003f0 39 65 3f 3e 57 66 c1 3e 61 42 f6 3e 24 2a b5 3e
       0.18690957 0.37773392 0.48097518 0.35383713

l1.bias f4 [8]
000000 a0 c0 3c 3f 2c d0 66 3f 06 64 85 3f 8a 5b 1e 3f
       0.7373142 0.90161395 1.042115 0.6185843
000010 5e 13 38 3f 17 f3 8b 3f 0b 53 f6 3e 7d a9 1b 3f
       0.7190455 1.093356 0.48110232 0.60805494

l2.weight f4 [8, 8]
000000 0f 19 b7 bf 2a 21 89 3f de f8 2b 3f b4 31 a9 3f
       -1.4304522 1.0713246 0.67176616 1.3218293
000010 28 69 a1 bf 62 b8 df 3f 3c 3a e8 3f 0d 24 4b 3f
       -1.2610216 1.7478144 1.8142772 0.79351884
000020 ac 05 a8 3f eb 3e 98 bd 8c 22 39 bf 91 99 d2 be
       1.3126731 -0.07433876 -0.7231834 -0.41132787
000030 6b 2a be 3f d9 05 31 3f 89 1d 2d 3f b5 f7 76 3f
       1.4856695 0.6914955 0.6762319 0.9647172
000040 c4 ee 27 be 5d 98 36 be 8e 05 c7 bd 44 b6 8d bc
       -0.16399676 -0.1783156 -0.09717856 -0.017298825
000050 0b 1d 83 3d c8 df b4 bd f2 dd 8d 3e b9 c2 71 bd
       0.06402024 -0.088317454 0.27708393 -0.059023593
000060 ac df 77 3f 1e e7 9c bf 28 03 c1 3f b4 59 65 3f
       0.9682567 -1.2258031 1.5079088 0.8959
000070 38 2e ff 3d e8 58 97 3e a4 3c 7a bf 38 93 9b bd
       0.124599874 0.29560018 -0.9774878 -0.07596439
000080 9c 8a d2 3e 4e c0 fd 3f 03 77 82 3f e5 03 df bf
       0.41121376 1.9824312 1.019257 -1.7423064
000090 3c a5 b1 3f 93 d6 0d 3f 07 98 21 3f b1 c3 ce bf
       1.387855 0.5540554 0.631226 -1.615347
0000a0 ca 13 1c bf 9a 20 e9 be a6 35 9c 3f e6 d0 b1 3e
       -0.60967696 -0.45532686 1.2203872 0.3472969
0000b0 3d a2 97 3f 91 f3 ce be 28 ee 25 3f 2a 73 9d 3f
       1.1846386 -0.404202 0.6481652 1.230077
0000c0 7d 02 ca 3f 32 f1 27 bf 30 c6 8e 3f 63 c7 b4 3e
       1.5782009 -0.6560241 1.1154232 0.3530837
0000d0 f8 ac 3f bf dc ca a8 3f f1 b0 ac bf d7 93 cb 3d
       -0.74873304 1.3186908 -1.3491498 0.099403076
0000e0 23 9e 54 be a8 52 5e 3f 9d bc 62 3f 82 8b cc 3f
       -0.2076345 0.86844873 0.8856905 1.5980074
0000f0 9c 80 97 3f 3e 8a bf bf dd 2a 4b 3f 2e ba 3a 3f
       1.1836123 -1.4964063 0.7936228 0.7294034

l2.bias f4 [8]
000000 29 cf 2e 3f c6 c0 7a 3d 66 cb 8e be d4 17 36 3e
       0.6828485 0.061219 -0.27889556 0.17782527
000010 9f d0 41 3f 15 06 0c be aa 92 29 3f ed 8f 61 3e
       0.75708956 -0.13674195 0.66239417 0.2202756

l3.weight f4 [16, 8]
000000 ba 5a 3e bf ea 30 dc 3e c7 72 97 3e 61 e8 1a c0
       -0.7435719 0.43006068 0.29579756 -2.4204333
000010 56 4a 3b 3f 11 d4 f9 bf d9 71 92 be e9 f2 8a 3d
       0.731603 -1.9517843 -0.28602484 0.06784613
000020 8d 8e 01 c0 82 0c 65 3f da d5 9e be af 75 f8 3d
       -2.0243256 0.8947221 -0.3102253 0.12131821
000030 ad f7 94 be 59 31 27 c0 39 f3 57 3f 56 01 11 c0
       -0.29095212 -2.612387 0.84355503 -2.2657065
000040 be 77 4f bf 64 d3 a5 bf d3 6d bd bc 32 14 fe 3e
       -0.8104209 -1.2955136 -0.023123657 0.49624783
000050 88 1a 1f 3f ac 58 02 bf 12 8c 19 3f 59 ea b8 bf
       0.6214986 -0.5091655 0.59979355 -1.4446517
000060 b7 3f 07 c0 d1 d9 99 bf cd 06 e2 3d ed 10 b9 be
       -2.1132638 -1.2019597 0.110364534 -0.36145726
000070 d1 f4 1d 3f 88 4c 8c be 02 09 cf be 5e 7c d5 3e
       0.61701685 -0.2740214 -0.4043656 0.41696447
000080 98 81 20 3f 63 e8 16 3e 14 bd 19 3d 28 8e 12 c0
       0.62697744 0.14737086 0.037533835 -2.2899265
000090 4d ca e2 3e ca 18 36 c0 cb d9 07 c0 b0 30 fb bf
       0.44294968 -2.845263 -2.122668 -1.9624233
0000a0 bc fa a2 bd d8 3f d4 bd 1c 57 04 3e 15 ad 51 c0
       -0.0795798 -0.1036374 0.12923855 -3.276189
0000b0 e7 0b 14 3f d3 09 3f be 90 b1 12 bf 08 c9 93 be
       0.5783066 -0.18656091 -0.5730219 -0.28864312
0000c0 d3 96 45 3f 81 6e fe bf a4 04 8c 3d d6 35 b3 bf
       0.77183264 -1.9877473 0.06836823 -1.4000804
0000d0 9e 49 25 3f 91 c6 4e c0 1d 0f ef 3e 91 79 ab bf
       0.64565456 -3.2308695 0.46691218 -1.3396474
0000e0 6b df 3b 3f 92 af 62 3f d7 2d a2 be 12 dc c7 bf
       0.73387784 0.8854915 -0.31675598 -1.5614035
0000f0 5e 47 8d bf 02 42 31 bf 40 1e e3 3e 0a 0c 24 c0
       -1.1037405 -0.69241345 0.44359016 -2.5632348
000100 b1 33 04 c0 e5 a0 f3 3e 2b 14 03 be dd 76 9a bd
       -2.065655 0.4758369 -0.12800662 -0.075422026
000110 f5 d6 6f be 16 95 17 3f 34 ca c0 be 4a b7 43 bf
       -0.23421843 0.5921186 -0.3765427 -0.7645155
000120 74 8b a3 3e 8a b4 3a c0 6a 69 94 bd 8c 15 49 be
       0.31942332 -2.9172692 -0.07246669 -0.19637126
000130 73 d6 e6 bf 90 1a 01 3f 27 bb 4c bf 45 d9 57 3f
       -1.8034195 0.50431156 -0.7997307 0.843159
000140 cd 3a 0d c0 dc 14 49 3f 6c 9e c9 bd a5 4c 1b c0
       -2.206714 0.78547454 -0.0984467 -2.426553
000150 77 0c 0c be 8d 79 44 bd 40 e8 11 c0 cc 41 09 3f
       -0.1367663 -0.047967482 -2.2798004 0.53616023
000160 94 64 15 bf 3b 73 d7 be 14 17 d8 bd c6 cc 45 bf
       -0.58356595 -0.420801 -0.10551277 -0.77265584
000170 f9 18 08 bf 3c be 5d 3f e2 cb e5 bf c7 a4 b1 3e
       -0.53163105 0.866184 -1.7952845 0.34696028
000180 a8 40 73 bc 2b 78 84 bf 76 3e 8c be 98 09 19 3f
       -0.014846958 -1.0349172 -0.27391404 0.59780264
000190 20 75 02 c0 c9 51 07 bf 49 6a 3e 3f 75 54 a8 be
       -2.0383987 -0.5285917 0.7438093 -0.32876936
0001a0 69 37 22 3f ed cd 47 bc 52 6f 98 3e 4e 07 b6 bf
       0.633658 -0.012195093 0.2977243 -1.4220979
0001b0 38 0a 97 bf 84 72 11 bf 59 0c cd be bf 3b ca 3e
       -1.1799994 -0.5681536 -0.40048483 0.39498708
0001c0 2c 13 b9 be b0 6a 28 3e 32 1b 2c 3e d4 98 27 3e
       -0.3614744 0.16446948 0.16807249 0.16366893
0001d0 43 99 31 c0 44 f2 3b 3e c2 12 ab 3c be 14 a8 3e
       -2.7749794 0.18354136 0.020882968 0.32828325
0001e0 2f b7 e6 3e d4 15 3e c0 6a 8f b0 bd 63 57 24 c0
       0.45061633 -2.9700823 -0.08621104 -2.5678337
0001f0 91 fb c6 3e 52 d5 a6 be aa 8d f0 bf 0e ad 42 3f
       0.38863805 -0.32584625 -1.8793232 0.7604531

l3.bias f4 [16]
000000 88 7c 6a 3e 7a 43 bb 3e 34 c8 a6 be 8a 80 f7 be
       0.22899067 0.36574918 -0.32574618 -0.48340255
000010 4c ef 1c bf 3b 60 41 3e 1e e8 39 3b ae 89 6a 3e
       -0.6130264 0.18884365 0.0028367112 0.22904083
000020 8e 41 30 be 6e d5 9e 3e 3f 5d c6 be 32 37 ff be
       -0.17212507 0.3102221 -0.38743016 -0.49846798
000030 a4 82 e1 bd 88 0a 4b bd 80 d9 c5 bd b1 83 b0 be
       -0.11011246 -0.04957059 -0.096606255 -0.34475473
